PCA/term_weights.npz (npz, 106984 bytes, 1 tensors)

arr_0 f8 [1334, 10]
0	0x4058b566982830c3	98.83438686299182
1	0x404cd25e208c3b5f	57.64349753234159
2	0xc04d5a315dc55586	-58.70463153968289
3	0xbfd6e20bd4491274	-0.3575467656230906
4	0xc03b340bd71fa3d0	-27.20330566904505
5	0x405109dab21af6b9	68.15397312768154
6	0xc050742e0dab90bc	-65.81531087641173
7	0x401a6657d09c3530	6.599944362196126
8	0xc03aaf844477728e	-26.685611991083128
9	0xc03098b79f37a8fe	-16.59655184849634
10	0x403ad60b24c0a65d	26.83610753730169
11	0x405867889796f580	97.61771192304695
12	0xc058e3ed1ce91778	-99.561347224835
13	0x4032991ddfcc7ba4	18.5981120943285
14	0xc0407956b8518328	-32.94795898418516
15	0x4055ccaa051a0e4e	87.19787719292182
16	0x4045f399ba74cd4b	43.90312891677112
17	0xc01c00e2600ddf95	-7.000863552901042
18	0xc04225cf8ec82e90	-36.295396659607945
19	0xc0488d803c6cd171	-49.105475953229764
20	0x405c1e3cb7c510a7	112.4724559235061
21	0x406a5e7ea0f26b51	210.95295760486127
22	0xc03cba3f30a0732a	-28.72752670209153
23	0xc03a1b0d88812100	-26.10567525055467
24	0x3ff048b3bb711a0a	1.017749530977769
25	0x404cfc41266669f5	57.970738220221314
26	0x40433c998300284e	38.47343480594337
27	0xc051e8a9760592c4	-71.63534307998913
28	0x403769e8c768cf68	23.413708174789832
29	0x4029a05f0e48efef	12.813225218203995
30	0xc064c23273121437	-166.0686583855729
31	0xc05c488ec66bfded	-113.13371429964145
32	0x40380df6686b16de	24.054541135926108
33	0xc042c238de8049f3	-37.51736050857644
34	0x4029f667b2482d3a	12.981259890852574
35	0xc0524a9fe07d9dc9	-73.16600811259481
36	0x401313b989462421	4.769262452035975
37	0xc035ce698acb3612	-21.80629794560634
38	0x404d00d70a60ee6d	58.00656251652695
39	0xc01fa0648898bc5d	-7.906633505174878
40	0xc065751e253ee923	-171.65992986953015
41	0xc0605c642fa8e662	-130.88722975719708
42	0xc059ace4f61e41a6	-102.70147469477396
43	0x404d8310a501bcbf	59.023945451591764
44	0xc061b41c1919ecb6	-141.62842993796738
45	0xc0649e7b33883de8	-164.95253922090274
46	0x40586d9ad81ceeb3	97.712575939421
47	0x400dc73a9c57b979	3.7222797598143953
48	0xc0648aef6bf63118	-164.34172628483134
49	0x4050f602d363353f	67.84392246902733
50	0xc073326615b35651	-307.1499230389937
51	0xc06b03cccea6c851	-216.11875088286118
52	0xc041043782c87c93	-34.03294405736337
53	0x403896b91cd86dd3	24.58876209529792
54	0xc0300484cb91286b	-16.017651293696343
55	0xc071d07471d0d948	-285.02842885572
56	0x40440933706bb5ab	40.071882298081015
57	0x400d12584ea3eaff	3.6339574950956144
58	0x40712d5ba002bb59	274.8348693949425
59	0x401c9ccb04f7d831	7.153118207576015
60	0x402b85d67d75cef6	13.761402054434694
61	0x4029c2e0bb56fad2	12.880620817535064
62	0xc03ced6db658a9e2	-28.927455326696766
63	0xc05b106c2df9d410	-108.25660275838186
64	0xc05ed1e5081cc9ed	-123.27960398494152
65	0x40425428018b8a10	36.65747088731234
66	0xc02c2e872931503b	-14.090874945897772
67	0x3ffaa8115b158436	1.6660321767779016
68	0xc042818fb1eda57b	-37.01219772437886
69	0xc04013d1e8623658	-32.15484337611696
70	0x4052d3f0e965aede	75.31157908372867
71	0x404d580c39deff3a	58.687873109708065
72	0xc0385846ff30b578	-24.34483332575971
73	0x401699cf1b4850b3	5.650204111374637
74	0x401da6dc505a4bcb	7.412949805747256
75	0x4025164a507bb1ab	10.543535723780982
76	0xbffb4a31b8c4cff9	-1.705613824608916
77	0x4047af0ecf427e9c	47.36763945338063
78	0x403ecb9ce2809020	30.795362621676873
79	0xc037ed40a60b2b9a	-23.926767709471825
80	0x4020932111fba186	8.28736168095271
81	0xc02a541fb248b332	-13.164304324507246
82	0x403f5979d1e8c012	31.349515075038717
83	0xc04caf7b9de8e81d	-57.370959986423465
84	0xc044b7edddce007b	-41.436946607195715
85	0x403a072f028b015a	26.028061064659916
86	0x40506764e56fc789	65.61553321758232
87	0xc00d97a830a30aaa	-3.699051265693318
88	0xbffad6d07cbb9f93	-1.6774449226740884
89	0xc0397e03829732b1	-25.49224106017454
90	0x4057fa168cb03c87	95.90762631617154
91	0x40584c381a1e1d37	97.19092419567902
92	0x407e9c6dcc2daa42	489.7768060478012
93	0x40657db8aab09724	171.92879232874213
94	0xc0667b88b0925ed7	-179.8604357584761
95	0x402088675ff6caf4	8.266413687587807
96	0x4046a28cada449bd	45.26991816064717
97	0x406f7178e004708f	251.546005257293
98	0x4046c0db1ba42f80	45.506686644715046
99	0xc054e5e17ba58bda	-83.59188738981848
100	0x402a3c9e6fa1a912	13.118396271213474
101	0xc0463583b1233c4a	-44.418081419186436
102	0x404762885afd1cc3	46.76978623732568
103	0xc03d0f150c0db109	-29.05891490301386
104	0xc026e882951bf0c2	-11.454121265087796
105	0x4024a2d286a23fc8	10.318012435251049
106	0x4040076afa5cb03a	32.05795220876503
107	0xc04005a7fe4b97b8	-32.04418924990699
108	0x402a149383aa5045	13.040187944927434
109	0x401586f7b77b0006	5.3818043392966555
110	0x407f235aa9aa6820	498.20963446202404
111	0xc0417042123abe5a	-34.877016333278064
112	0xc059fdb486ee8ed4	-103.96414349838898
113	0x4024df0c3014d001	10.435639860668745
114	0x40675df7d419578c	186.93650250386816
115	0x403eaf1e710ca6cf	30.684058251942414
116	0x406ab38c86d9156f	213.61090414427915
117	0xc06327f7063a0f18	-153.2489043363537
118	0x4038293a1896d247	24.161042725392942
119	0xc01821cd8601824c	-6.033010572282887
120	0x40776a5a58afce65	374.6470572345191
121	0x403a4a170045d6bc	26.28941346840905
122	0xc04991436b0d98b7	-51.13486993945974
123	0xbfdbacc7741b027a	-0.4324206003039205
124	0x4071e7c782551789	286.4862082790283
125	0x4040930046318d0c	33.148445867724234
126	0x406212f84bccc81e	144.59280958172252
127	0xc04beac96e8d8266	-55.83427221212041
128	0x4035857510075b83	21.521317483707673
129	0x40220a6b55989fcc	9.020350146180043
130	0x4077f4f0c4c507bc	383.30878140416075
131	0x402c93c49819a77c	14.288609269267674
132	0xc031be7bfdb08931	-17.744079452132784
133	0xc035135d84689d8c	-21.075645709553598
134	0x406811916e3231a4	192.54900274089334
135	0x40508599e24885c3	66.08751732904697
136	0x406957eeb4cfb648	202.7478889519573
137	0xc063c7a40fb6dfea	-158.23877702443798
138	0x404b009c71744a43	54.00477426698901
139	0x40030bc234a941c1	2.3807415117409794
140	0x405e2ebfdaaa8638	120.73045984890712
141	0xc042bbe8348a5838	-37.46802384142978
142	0xc0285dcc5ef70310	-12.183199851658657
143	0xc00ce4c121c6552e	-3.6116964949275348
144	0xc0429fce8ca75a89	-37.248490888324405
145	0xc01708b545b0f160	-5.758503998684631
146	0xc01364b94e4de105	-4.848363135817867
147	0xc037937b0a2d0c21	-23.576096187589545
148	0xc0213e1b08b099bf	-8.621300002629935
149	0xc017b8796db9519b	-5.930150713382683
150	0xc06a92959b3aa4c4	-212.58076249555427
151	0xc033d1065323be48	-19.816502758242024
152	0x404cf8710e635a58	57.94095020152298
153	0xc052ef37e4af0aaa	-75.73778645605003
154	0xc026e8b477ce4b2a	-11.454501861507726
155	0x4068631b4fa11d92	195.09708386867402
156	0xc060b4b14344ebf7	-133.64663852177884
157	0x40349fbc56f5d1be	20.623967585577468
158	0x404382b2f925fd11	39.02108682970914
159	0xc0380a927a52de74	-24.04129757426422
160	0x40499bf3678edfc1	51.21836561657211
161	0xbffb2b872f4cc2d0	-1.6981269691133782
162	0x405f5cead784813f	125.45183360996178
163	0xc067b6e2169f0434	-189.71509867723364
164	0x402de6c81ad876fc	14.95074542896645
165	0xc02b455526508f19	-13.635415265401706
166	0xc027eda46ab29d19	-11.964145025542665
167	0x40091355f1d7105a	3.1344412702328954
168	0xc0313cac3e641b5c	-17.237003230514674
169	0x402e8235cb13623d	15.254316660038166
170	0xc03b1534cf3e14d6	-27.08283705964717
171	0xc05295bdb9dad698	-74.33970495577739
172	0x40441943d9562334	40.19738308626111
173	0xc060e04fa7bff944	-135.0097235440718
174	0xc032880ec3e70dd1	-18.53147529974905
175	0xc01964e174b1335d	-6.348516295733899
176	0x3fd80889e55d5de4	0.3755211582078728
177	0xc032d9eadbc4e606	-18.851239905901842
178	0xc01fd225d4476944	-7.95522243200168
179	0x4033a0188d43fc70	19.625374631021657
180	0xc0685d09f356ebaf	-194.90746466614425
181	0xc063898a76034bfa	-156.2981519760504
182	0x402b70285641ba6b	13.719057746432744
183	0xc049dd2e045c4919	-51.72796682840471
184	0xc049f175b663249a	-51.88640479889837
185	0xc0509ada8ebc9d0c	-66.41958969516071
186	0x401cbc4774580778	7.18386632716453
187	0x400c2cd52b736cb4	3.5218909639930533
188	0x4057cd6c8e1cd5c5	95.20975067916795
189	0x40257682622ea32d	10.731463497345965
190	0x403d048dc23688a8	29.017788065256042
191	0x403764d15710f503	23.393819276466285
192	0xc03f33632a981ae0	-31.20073190892697
193	0xc04998e7e658c13c	-51.194577020013156
194	0xc0258da425d4724f	-10.776642973121083
195	0xc0447dc2292b1a2f	-40.982487817808185
196	0x3fd2df51bb424dc3	0.29488032614719034
197	0xc0109b659c577621	-4.1517548015959
198	0xc046da1cdb4963ed	-45.70400563319695
199	0x4025dab416914ed7	10.927155213582791
200	0xc06077e73d81d81c	-131.74697757110778
201	0xc0611c2c26ee6a1b	-136.88038965764358
202	0x4044a746a2c7869c	41.306843135285106
203	0xc05b14321ff59e88	-108.31555937753922
204	0xc05668b93190a6d4	-89.636303321134
205	0x403314d92eed243a	19.081438954254033
206	0x402336c86f32d21c	9.606997942880348
207	0xc046522f8d107acc	-44.64207614235565
208	0x4015d8043fe09f5b	5.460953710636967
209	0xc036f53763385dc8	-22.95787639738208
210	0xc0639a11240257f7	-156.8145923658155
211	0xc04b6aaf18cab512	-54.83346853158777
212	0xc0464d75d74b5705	-44.60515872172076
213	0xc051774aa3569028	-69.86393054440907
214	0xc04d4c632c044c14	-58.596776487444146
215	0x403008fa5f7118c1	16.035070386039255
216	0x404cf14a60558518	57.88508228469635
217	0xc03b3748703e8e68	-27.215949073097732
218	0x4046ae07cc48d26f	45.35961297565233
219	0xc02121f9623653c1	-8.56635577119039
220	0xc065f1a6a90a24c2	-175.55159427624864
221	0xc05779690cef3711	-93.89703677521562
222	0x40402f00226bdb2d	32.36719160334028
223	0xc04f7fab101afd12	-62.99740792577553
224	0xc0568ec4b6d17046	-90.23075647786126
225	0xbffebfff76a7cf86	-1.921874488351905
226	0x4050159ca16827d8	64.33768496676873
227	0xc04a91d16ae50b30	-53.1392034166696
228	0x403e458e33f76cd3	30.271701095491903
229	0x403116756e47447d	17.087729351424503
230	0xc06cfd90bb188fd6	-231.9239173392986
231	0xc051ac62adf4b5a6	-70.69352291963023
232	0xc02bd3bc4fde6dc9	-13.91354608144947
233	0xc051d09c5a476a30	-71.25954300855733
234	0xc045b9813b6172a4	-43.44925634630388
235	0x4032caccb8bb50f4	18.792186303836345
236	0x404bad939e5736f0	55.35606745966459
237	0xc049aadcfdb58883	-51.33486911167076
238	0x404306b60fed6c4b	38.0524310979168
239	0xbfdadc38cf279048	-0.41969127874313417
240	0xc05c73c5daaf69e7	-113.80895106439822
241	0xbff9e6001996baf2	-1.6186524390756714
242	0x404981855895c87d	51.01188189805632
243	0xc032c196ed99d153	-18.756209230473655
244	0xc0445bae6433b006	-40.716259503591615
245	0x403be1926966115e	27.881140315455347
246	0xc02ee5fd7182eb0b	-15.449199244719713
247	0xc03cf85955b53f6f	-28.970113140821407
248	0xc0294186f1515cca	-12.62798265569872
249	0xc0150508bece1b80	-5.254916173295783
250	0xc061fed7baf232f4	-143.96383426002978
251	0xc002c7c11a078799	-2.347536280970371
252	0x400132f996a305d4	2.149890114641247
253	0xc03007d1db241b05	-16.030545898737746
254	0xc031878550721b35	-17.529377963884333
255	0x4042f9f4ad4a17a0	37.9527794467715
