PCA/term_weights.npz (npz, 76264 bytes, 1 tensors)

arr_0 f8 [950, 10]
00000000: 5da5 2898 66b5 5840 ff25 7520 5ed2 4c40
00000010: 7da3 9260 315a 4dc0 9902 07fe 07e2 d6bf
00000020: be2d 0d1f 0c34 3bc0 2136 4e87 da09 5140
00000030: ab6e 1d97 3974 50c0 8009 9d09 1d65 1a40
00000040: e119 24f6 65b1 3ac0 a6d2 9b50 559a 30c0
00000050: 88f7 c224 0bd6 3a40 a2bc 8b97 8867 5840
00000060: c295 581f ede3 58c0 3eee f910 1e99 3240
00000070: a98c 37f1 5679 40c0 8606 0ce4 a9cc 5540
00000080: 871f 566e 6cf3 4540 2e33 a740 6800 1cc0
00000090: 392a e92e c726 42c0 7fdb f865 148f 48c0
000000a0: b076 c5b7 3c1e 5c40 e384 f9a0 7e5e 6a40
000000b0: 795a e929 3fba 3cc0 d3dc c1ac 0d1b 3ac0
000000c0: 6bd0 a7a2 b848 f03f 5c6e ac7c 40fc 4c40
000000d0: a698 a026 ae3c 4340 f6ae 16f4 d1e8 51c0
000000e0: 02ea 6093 8266 3740 fa0e 7c4b ada2 2940
000000f0: 0f8d 1273 32c2 64c0 86c1 60c6 8e48 5cc0
00000100: 344c 5c68 f60d 3840 fe9d a7e7 38c2 42c0
00000110: dbad c891 68f6 2940 e4ed 3c7c 9f4a 52c0
00000120: 6d5e 8bad 1815 1340 b250 0100 0ace 35c0
00000130: 2d1e 2636 6b03 4d40 b4ee bcb7 c09b 1fc0
00000140: f0cf 747d d685 2b40 8e5c 00bc e0c2 2940
00000150: 8677 19ad 6ded 3cc0 dab3 5734 6c10 5bc0
00000160: 1ff3 0d00 e5d1 5ec0 e4d9 dd88 2854 4240
00000170: 6cc3 0e3c 8f2d 2cc0 4beb 5020 e9ae fa3f
00000180: 9bd1 cf46 697f 42c0 cbf6 c5c4 8310 40c0
00000190: 4e11 64e9 f0d3 5240 edbf f239 0c58 4d40
000001a0: cf15 95f4 4658 38c0 232d c8e1 cd99 1640
000001b0: d2ba e544 dfa6 1d40 ee2d 1c40 4c16 2540
000001c0: 32ea 4b69 8342 fbbf 7126 2e85 45af 4740
000001d0: 8f15 399c 3dce 3e40 ce51 3044 94e7 37c0
000001e0: 2e6d f111 2193 2040 02bf 13b2 1f54 2ac0
000001f0: 6637 f5e3 7959 3f40 2453 01b9 7baf 4cc0
00000200: 478f 57c0 edb7 44c0 19c5 8e7b 3007 3a40
00000210: 8d24 0b12 7c67 5040 cad4 ef87 ce95 0dc0
00000220: 1a30 c303 c5ac fabf 1f34 d7a9 5a80 39c0
00000230: 476b ae8c 16fa 5740 9504 0b1a 384c 5840
00000240: 93bd c6cc 6d9c 7e40 292c 18a1 b87d 6540
00000250: fe06 7d9f 887b 66c0 bf45 5787 6a88 2040
00000260: 7042 96ac 92a2 4640 ea5f cd45 6d71 6f40
00000270: b4c0 6e51 f4c0 4640 c560 eb0a 38e8 54c0
00000280: 05de a16f 9e3c 2a40 e758 19b1 8335 46c0
00000290: 2ee3 f659 8862 4740 169b 5cff 140f 3dc0
000002a0: 68bf 92b5 82e8 26c0 c916 1547 d2a2 2440
000002b0: a9aa 469c 7307 4040 372d cec5 7b05 40c0
000002c0: 4995 b74f 0116 2a40 9332 4350 d595 1540
000002d0: 6808 aaa9 5a23 7f40 66a9 3d12 4270 41c0
000002e0: beb5 4988 b4fd 59c0 a9e3 7992 0bdf 2440
000002f0: abde b2ed f75d 6740 8f8e c2f6 1faf 3e40
00000300: 8203 5b6f 8bb3 6a40 6813 d26d df27 63c0
00000310: db4e a999 682b 3840 11e0 69fa 01fe 17c0
00000320: c0ae af58 5a6a 7740 a3b8 2e00 174a 3a40
00000330: 7c0b b070 4391 49c0 91e9 e1e5 d3ac dbbf
00000340: a066 c888 c7e7 7140 760e 27ea 0193 4040
00000350: 95f6 7676 f412 6240 b9a7 44cf 6aea 4bc0
00000360: e01b 3026 1a8c 3540 d2e8 2d4f 1b1a 2240
00000370: c6ed c4c4 f0f4 7740 d189 6598 c493 2c40
00000380: f22e 4d0b 7cbe 31c0 f4ba f2ae 5d13 35c0
00000390: 41ee 3980 9111 6840 7dde 2532 9a85 5040
000003a0: c961 0603 f057 6940 a901 0f0b 7fc7 63c0
000003b0: 5f02 324f 9502 4b40 7455 7a9e bf93 0340
000003c0: d4de a9da bf2e 5e40 1716 8d34 e8bb 42c0
000003d0: b506 9a66 cc5d 28c0 018f c648 c1e4 0cc0
000003e0: d3de ad78 ce9f 42c0 556b 2795 b208 17c0
000003f0: a299 a924 ac64 13c0 4ea1 ab6a f592 37c0
00000400: cd4d d4ef 7a3a 21c0 d900 2058 26a9 17c0
00000410: 9612 3b9b 9592 6ac0 5c91 4252 06d1 33c0
00000420: 2f2d ec24 71f8 4c40 1b4f 6a0f 38ef 52c0
00000430: 6001 c6b2 b2e8 26c0 ef4a 229a 1b63 6840
00000440: b2d8 cb06 83b4 60c0 8b47 3550 4b9f 3440
00000450: cb70 0878 bd84 4340 35ee 26fc ce03 38c0
00000460: 7728 8b67 f39b 4940 da16 ef31 872b fbbf
00000470: c834 a4dc ea5c 5f40 c437 1b23 e2b6 67c0
00000480: 6995 c50e c9e6 2d40 182e 2756 5145 2bc0
00000490: 8b35 8d49 05ed 27c0 c7ec 3f6c 410f 0940
000004a0: 9698 f76f b33b 31c0 b24f da67 166b 2e40
000004b0: 1f07 3fcf 3415 3bc0 3d75 dfb9 bd95 52c0
000004c0: d788 bdde 4319 4440 8245 b4ab 4fe0 60c0
000004d0: 5f86 dad4 0e88 32c0 f0ae 0f72 dd64 19c0
000004e0: 7720 50a6 c70e d83f b298 299d 16da 32c0
000004f0: c41c 11a0 dfd1 1fc0 cef1 1b21 7c9b 3340
00000500: ff72 57f3 095d 68c0 4137 0276 8a89 63c0
00000510: 8a9e 995f 2870 2b40 3f15 fe0d 2edd 49c0
00000520: c70d a88d 75f1 49c0 0f50 bb38 da9a 50c0
00000530: 6eb6 7197 16bd 1c40 5d48 f1eb 8d2c 0c40
00000540: 1981 3d21 f1cd 5740 006e 8bd3 756b 2540
00000550: 89bf 37c2 8d04 3d40 8e69 f756 d164 3740
00000560: 602a 4b29 6333 3fc0 123b eae0 e798 49c0
00000570: f0cf 6ab9 a48d 25c0 cc23 a9a9 c27d 44c0
00000580: a34f 3e96 4acd d23f 2cde 730b c99b 10c0
00000590: 7cce f354 68dc 46c0 4ad7 5aae 8bda 2540
000005a0: 3dfe 813d e777 60c0 706d 0027 2c1c 61c0
000005b0: 00b3 8181 46a7 4440 19ca 2d0d 3214 5bc0
000005c0: 9ef7 83f9 b868 56c0 612a 489b da14 3340
000005d0: d9c1 b611 8335 2340 ac7d 3144 2b52 46c0
000005e0: 9fb1 2a5e 8cf5 1540 3056 d5c2 b1f5 36c0
000005f0: b6ac 0124 119a 63c0 bd6a 1019 af6a 4bc0
00000600: 188e 11e6 754d 46c0 7da0 3287 4a77 51c0
00000610: 005d 13b4 634c 4dc0 dbb1 be0c fc08 3040
00000620: f21e e96f f3f0 4c40 18f8 b0a4 2237 3bc0
00000630: e5e0 3857 97af 4640 83a4 7fba 3e2b 21c0
00000640: 1c7f 09a9 a6f1 65c0 e6dd ff0c 6979 57c0
00000650: 251a 441c 002f 4040 50ce f0f0 aa7f 4fc0
00000660: a274 4ef2 c48e 56c0 0dad e83d e8bf febf
00000670: 5a6d 4369 8315 5040 1c84 851a bc91 4ac0
00000680: d76d f73c 2b47 3e40 33c4 f354 9513 3140
00000690: 33aa 17bb 90fd 6cc0 86f9 14ae 62ac 51c0
000006a0: bb55 7c92 bcd3 2bc0 7ba8 0b3f 9cd0 51c0
000006b0: d623 dbbd 81b9 45c0 1a20 980c ceca 3240
000006c0: 3f17 f89f 33ad 4b40 26de 970e cbaa 49c0
000006d0: b271 01ed ca07 4340 df91 5333 fc23 dbbf
000006e0: 3ce1 adda c573 5cc0 f053 2021 00e6 f9bf
000006f0: 87b6 e54d 8581 4940 01d1 2699 96c1 32c0
00000700: 0a81 66da ae5b 44c0 0394 6992 93e1 3b40
00000710: f97f 725c 38e7 2ec0 58b6 03f1 60f8 3cc0
00000720: 852e 3970 033e 29c0 3767 812d 031c 15c0
00000730: 6381 f1ba d7fe 61c0 1482 1f1f c1c7 02c0
00000740: 3e7e 1864 f832 0140 2921 2550 d107 30c0
00000750: f909 744f 8687 31c0 a19c 512d f5f9 4240
00000760: 7465 e9a8 16af 1940 e003 a14a e414 36c0
00000770: 66f0 8ee4 ffce 3e40 f6f8 a2ce 107e 2ac0
00000780: d795 a9c1 cf89 53c0 8e0a e78f 429c 5940
00000790: 2153 3a46 ed87 66c0 3667 7a52 feff 5140
000007a0: 7cf4 3903 66f3 4ec0 e6b4 8a05 44b2 3e40
000007b0: 6ab6 773e 8f29 4cc0 2c5d ccd7 bfac 4640
000007c0: 26cb b2d4 71ab d63f 5fb9 8f7c be8f 3ec0
000007d0: 4e8c 5435 cdd2 67c0 ad52 8352 ffee 3f40
000007e0: bf9c f6d8 29c8 1b40 47f0 4bbb fdca 5240
000007f0: ce89 4789 c3a8 5b40 5738 bed9 2d5b 5bc0
98.83438686341601 57.6434975215925 -58.70463187370385 -0.35754585082399043 -27.20330995628114 68.15396292341076 -65.81601503252266 6.598743581971917
-26.692962058843367 -16.602864301722228 26.836107537841173 97.61771191259552 -99.5613478055084 18.5981150255377 -32.94796576702476 87.19786931204189
43.90174655156357 -7.000397691922258 -36.30295359025008 -49.117810007584005 112.4724559238773 210.95295761808583 -28.727526301833198 -26.105677411393867
1.0177542070132641 57.97071798724639 38.474064663330225 -71.63781454291515 23.400429927025478 12.817728384870396 -166.06865838645214 -113.13371428917716
24.054541132482157 -37.51736159977371 12.981266551730121 -73.16598421049235 4.770601951247596 -21.804840088196848 58.02670933591103 -7.9021023472848135
13.761402054318722 12.880620837253698 -28.92745477554083 -108.25660427632047 -123.27960206377291 36.657487018895864 -14.088983418275994 1.6677027952525403
-36.99540028712655 -32.129021259939314 75.31157908222414 58.68787311890615 -24.3448326934793 5.650199439852517 7.412961079141228 10.543550494613523
-1.7037386048456367 47.36930908921648 30.80562759774835 -23.904606115147367 8.287361679764754 -13.164304318342605 31.34951615082482 -57.370963216444835
-41.43694309497237 26.028083536487518 65.61694766128694 -3.6981478328767468 -1.6671800753565607 -25.501383414306584 95.90762631447897 97.19092417789427
489.7768066180517 171.92878775330726 -179.86042761248967 8.266437749293685 45.270101140374095 251.54458894836654 45.50745599658822 -83.62842057214864
13.118396271237552 -44.41808141458187 46.769786115217684 -29.058914146527137 -11.454122232593093 10.318010541271535 32.058215651040264 -32.04283974234789
13.04297875514989 5.396321539021886 498.20963446063115 -34.877016334636934 -103.96414382169948 10.435635163668694 186.93651471076495 30.684081480502353
213.6107708718883 -153.24602404623442 24.169564822993248 -5.998054421150315 374.6470572340586 26.289413463026573 -51.13487061115208 -0.4324235672899244
286.4862144306335 33.148495930738974 144.59234164462092 -55.83138457157424 21.54727400469335 9.050989603380376 383.308781403783 14.288609278101747
-17.7440802634655 -21.075648245106052 192.54901133837305 66.0875363702598 202.74804831739883 -158.234258202848 54.02018155996188 2.4471428280909837
120.73045984829815 -37.46802384270648 -12.183200079252268 -3.611696785506752 -37.248488507173214 -5.758493738680802 -4.848312924243517 -23.574057261373405
-8.614219183603291 -5.915185334161117 -212.58076249635332 -19.816502705814273 57.9409528878408 -75.73779664403666 -11.454488360090807 195.097119395235
-133.64099445165408 20.62224293995636 39.03703213131083 -24.01487708998157 51.21836561484172 -1.6981269789261462 125.45183483157882 -189.7151046306227
14.950752698535057 -13.635386173517915 -11.9629309639811 3.132449002934297 -17.233206747005703 15.209155316733675 -27.082837059867526 -74.33970496007983
40.19738373045555 -135.00972542962342 -18.531476310110857 -6.34850099774097 0.37590209237578825 -18.851907560973537 -7.954954625172096 19.607362813303375
-194.90746466712878 -156.29815197403698 13.719058024885516 -51.72796797663113 -51.88639994340661 -66.4195691899515 7.184656492534129 3.5217550690659167
95.21784239774969 10.709883318681932 29.017788065538785 23.393819270518684 -31.20073183140846 -51.194576372499924 -10.77664737156735 -40.982503135288056
0.2937799899311761 -4.152134112307561 -45.72193395523661 10.92684693201922 -131.7469775713852 -136.88038969119543 41.30683916886301 -108.31555489989877
-89.63628995788028 19.081460671537915 9.604515603598815 -44.64194538513706 5.489793273311448 -22.959743668636463 -156.81459236456948 -54.83346856404885
-44.60516048295193 -69.86392383522066 -58.596792706923225 16.035095974499068 57.882429112270884 -27.2153723651937 45.37180605199118 -8.584462955552459
-175.55159427504339 -93.89703679072372 32.36719086957263 -62.99740421064473 -90.23077066098861 -1.9218523424449956 64.33614570221599 -53.138552966302285
30.27800351181744 17.076497373116762 -231.92391733762778 -70.69352294967948 -13.91354806678543 -71.25953651560296 -43.44927190017886 18.792206561222066
55.3531379662877 -51.33432180800837 38.060880304055345 -0.4240713597521601 -113.8089510629697 -1.6186524671550124 51.01188062397437 -18.756204196907678
-40.716273593951044 27.881158018852158 -15.451601876236952 -28.970229209333723 -12.62111998270053 -5.277355872176307 -143.96383425873782 -2.3475363189211382
2.149887830731841 -16.030537613930537 -17.529393163518737 37.952794709062125 6.420984877820377 -22.08160845213922 30.80859211435054 -13.246221978563408
-78.15330545006815 102.44156262934322 -180.24771415130184 71.99989759400782 -61.90155067758403 30.69635042797463 -56.32468396039333 45.34960458258351
0.35421415110902144 -30.561500344361203 -190.58754984391493 31.933583409367817 6.945472135593433 75.17173654952886 110.63693458543932 -109.42467349601917
